n_size: 30, n_interval: 30, start_token: 900
  0%|          | 0/7569 [00:00<?, ?it/s] 49%|████▉     | 3736/7569 [00:00<00:00, 37335.11it/s] 99%|█████████▊| 7470/7569 [00:00<00:00, 36892.13it/s]100%|██████████| 7569/7569 [00:00<00:00, 36843.55it/s]
Trainset size: 7569
----------------------------------------------------------------
        Layer (type)               Output Shape         Param #
================================================================
            Linear-1                  [-1, 256]          15,616
              ReLU-2                  [-1, 256]               0
            Linear-3                  [-1, 512]         131,584
              ReLU-4                  [-1, 512]               0
            Linear-5                 [-1, 1024]         525,312
              ReLU-6                 [-1, 1024]               0
            Linear-7                 [-1, 1024]       1,049,600
              ReLU-8                 [-1, 1024]               0
            Linear-9                  [-1, 512]         524,800
             ReLU-10                  [-1, 512]               0
           Linear-11                  [-1, 256]         131,328
             ReLU-12                  [-1, 256]               0
           Linear-13                   [-1, 64]          16,448
           Linear-14                   [-1, 64]          16,448
           Linear-15                  [-1, 256]          16,640
             ReLU-16                  [-1, 256]               0
           Linear-17                  [-1, 512]         131,584
             ReLU-18                  [-1, 512]               0
           Linear-19                 [-1, 1024]         525,312
             ReLU-20                 [-1, 1024]               0
           Linear-21                 [-1, 1024]       1,049,600
             ReLU-22                 [-1, 1024]               0
           Linear-23                  [-1, 512]         524,800
             ReLU-24                  [-1, 512]               0
           Linear-25                  [-1, 256]         131,328
             ReLU-26                  [-1, 256]               0
           Linear-27                   [-1, 30]           7,710
           Linear-28                   [-1, 30]           7,710
================================================================
Total params: 4,805,820
Trainable params: 4,805,820
Non-trainable params: 0
----------------------------------------------------------------
Input size (MB): 0.00
Forward/backward pass size (MB): 0.11
Params size (MB): 18.33
Estimated Total Size (MB): 18.44
----------------------------------------------------------------
Epoch: 100/50000, Epoch time: 0.22s, Total time: 22.21s, LR: 1.00e-03
…
